…
st:8080/"},"id":"kROMXrW0aAbZ","executionInfo":{"status":"ok","timestamp":1710192338066,"user_tz":300,"elapsed":9,"user":{"displayName":"Daniel Fernando Morales Bernal","userId":"00068911931279033562"}},"outputId":"7ef2776a-b949-4bde-9d85-a647d78e41d7"},"execution_count":12,"outputs":[{"output_type":"stream","name":"stdout","text":["Model: \"sequential\"\n","_________________________________________________________________\n"," Layer (type)                Output Shape              Param #   \n","=================================================================\n"," conv1d (Conv1D)             (None, 126, 16)           3088      \n","                                                                 \n"," max_pooling1d (MaxPooling1  (None, 31, 16)            0         \n"," D)                                                              \n","                                                                 \n"," flatten (Flatten)           (None, 496)               0         \n","                                                                 \n"," dense (Dense)               (None, 64)                31808     \n","                                                                 \n"," dense_1 (Dense)             (None, 64)                4160      \n","                                                                 \n"," dense_2 (Dense)             (None, 8)                 520       \n","                                                                 \n"," dense_4 (Dense)             (None, 64)                576       \n","                                                                 \n","=================================================================\n","Total params: 40152 (156.84 KB)\n","Trainable params: 40152 (156.84 KB)\n","Non-trainable params: 0 (0.00 Byte)\n","_________________________________________________________________\n"]}]},{"cell_type":"markdown","source":["#Visualising the initial
…
